scripts/weights/centers.npy (npy, 1408 bytes, 1 tensors)

array f4 [64, 5]
00000000: 9e03 333f 1bbe 933f 37ee ea3e 66b0 9a3f
00000010: cc3c 9a3e 7dd0 4f3f fc9c d5be b42d ecbd
00000020: b4ef 08bf bf0f c5bd bde1 96bf 3a82 613d
00000030: 32a5 e6bd b731 16bf d76e 893d df25 0940
00000040: 674b f63e 8bfa 3c3f 354b c8be 1dc3 9d3c
00000050: a2ac ad40 c7f0 303f 2b25 5e3f aafc e93e
00000060: 83fa c33f 0678 95be e91d e7bf 027a 69bb
00000070: 0d67 0b40 a948 e9bd 219b cbbf fd73 383e
00000080: c61c 1140 f98a fcbe b632 483d 0c7b 73c0
00000090: 0ff5 0dbf 50c0 0cbf 3ce3 1e3f d8b3 dbbe
000000a0: 66c2 a140 7217 653e 5194 8dbe 325c 8d3f
000000b0: eea6 89bf d3b9 16be abcb cfbc 9b71 d33f
000000c0: 86d0 f8bf 64b1 7ebc 8a66 e7bf 5605 b43f
000000d0: ec1e babd 0039 283f b585 b9bf 6c6b e23f
000000e0: d8e7 e0bc f98c ed3f 816e 8dbf c049 2c40
000000f0: 6730 3cbf 5411 2c3f f319 49bf f5ef 89bf
00000100: da7b f1bd 3e94 913e e867 a5bf 3227 02bf
00000110: 5bb2 e13e 17d6 5ebe 3956 c03f 986d bfbf
00000120: 47e3 ac3d 37f9 b53f 5263 d3be 7f66 5fc0
00000130: 901f af3e 9b42 ea3f 917b 453e c8dd 53bf
00000140: 1bab 27c0 d10e 36bf 7ad4 093e 7ba9 283f
00000150: 5504 cd3e a103 bfbe c49a 79bf ee90 7e3f
00000160: 11cc 3140 db7b 6c40 3e10 25bf 5cb2 2d40
00000170: 0010 ea3f 48fe be3e 172b 61bd 9118 5d40
00000180: 0dca 143f e2be 15bf 8273 903e 80cf d63f
00000190: 6266 8bc0 7fdc d1be 2533 3f40 54c0 e53f
000001a0: d9af db3e b709 27bf a7f0 98bf 6059 3c3f
000001b0: 298b 80be 7d25 7f3d 03b7 ec40 0be5 1e3f
000001c0: 34e4 a53e 7d70 2e40 8f49 0940 befe 563e
000001d0: b957 88bd a4ff 8abf 553f 2abf b623 853c
000001e0: 5ce9 b5bf 13c2 a03f 0fc3 0ebf dc69 d23c
000001f0: e541 933d 8024 36be 49bb 7dbf 18d5 8f40
00000200: a424 26c0 90d4 383e 8b73 ddbf aad8 79bf
00000210: 3d3e 713d a53f e53f 1d25 9d3e 58b2 b83e
00000220: ffd0 a73e b041 33bf 53f7 e43a 5fbb 2a40
00000230: eff9 4c3f 2669 0abd bbcf f1be b3e4 3c3f
00000240: df16 923e cd46 20be b8df 1abf 3ca8 dcbe
00000250: 8cf3 98be 9eef adbd 019e 25be 1b9e 50bf
00000260: e397 6940 47a4 59bf 9c05 1ebf 24db c23f
00000270: 11a9 2a40 5bd4 3c3f 2981 603f ee6c 6b3e
00000280: 1798 8ebf 5b31 4c40 e2ec b83e ea48 753f
00000290: 52b6 96bc e736 be40 0d01 8fbf ba7f 6440
000002a0: 5747 05bf e1b7 95be f90d 3b40 03e1 bb3b
000002b0: c207 39bf 0385 9ebe b819 d3be 2ddd 9dbe
000002c0: eb81 0abf 15e4 313f bb4c 5a3f 044b 053e
000002d0: 712e f23f ed7a bd3e 8226 6cbf d7e7 cebe
000002e0: 5228 2540 d076 8abf 9866 533f 5431 173f
000002f0: a97d 69be a26b 1bbe 72a7 6240 68f0 e23f
00000300: 0365 a83f 1509 f33f c0ce c039 492d ebbf
00000310: afaa b93e 5e7a 19be 0c0b 2e3f 210f bb3d
00000320: 4cfe dbbe 9a88 fd3f 2952 703e b440 5f3f
00000330: 2055 12bf bdf3 41bf ca4d 48be 2a1d 81bf
00000340: aed8 a8be dea3 0abc e02e 60bf 42f9 d2bf
00000350: 87a5 a2be 29d3 333f b7c9 0abe d6fc 7abe
00000360: 0e7b 103f 85b8 a3be 6d12 9b3e 6ac7 f2bd
00000370: 39d6 08be be59 cdbe 7416 183f 0a93 84bf
00000380: 3eec 56bd 0ced 8dc0 bb11 0bbf 8de7 1c3f
00000390: a5cc 1840 799d 0e3f d88a 11c0 2e01 22bf
000003a0: bbf0 af3f 0c4c bbbe 322c c23e 85cf 8840
000003b0: 3596 debf 09f2 c33e 2f64 b23f 9f68 ccbf
000003c0: f240 20be ea43 1f3f 63cd ea3d d1e7 c8bf
000003d0: 31c2 5abd 4c46 1c40 2700 4f3f a59a 0b3e
000003e0: fa55 a43f 779f 90bd e6da d840 8dd2 3dbf
000003f0: b152 1b3f f623 473f 754b 11c0 2ec8 f53f
0.69927394 1.154239 0.45884869 1.2085083 0.3012451 0.811775 -0.41721332 -0.11532155
-0.5349076 -0.09622144 -1.178764 0.055055834 -0.11261977 -0.5866961 0.06710594 2.1429365
0.48104402 0.738198 -0.39119878 0.019258076 5.4273233 0.691174 0.86775464 0.4570058
1.5310825 -0.29193133 -1.8056003 -0.00356257 2.1781647 -0.11390812 -1.5906717 0.18012996
2.2673812 -0.49324778 0.048876487 -3.8043852 -0.55452055 -0.54980946 0.6206548 -0.42910647
5.0549803 0.22372225 -0.2765222 1.1043761 -1.0754068 -0.14719324 -0.025365671 1.6519045
-1.9438636 -0.015545223 -1.8078167 1.4064128 -0.09087929 0.65711975 -1.4493929 1.7689033
-0.027454302 1.8558646 -1.1049348 2.6920013 -0.73511356 0.6721394 -0.7855522 -1.0776354
-0.11791201 0.28433412 -1.2922335 -0.5084106 0.44081387 -0.21761356 1.5026313 -1.495532
0.08441787 1.4216679 -0.41286713 -3.4906309 0.34203768 1.8301576 0.19285418 -0.82760286
-2.6198184 -0.7111636 0.1345996 0.65883607 0.40042368 -0.37307456 -0.9750178 0.99439895
2.7780802 3.6950595 -0.6447791 2.7140112 1.8286133 0.37303376 -0.054972734 3.4546244
0.58120805 -0.5849439 0.28213125 1.6782074 -4.356248 -0.40988538 2.9874966 1.7949319
0.429076 -0.652492 -1.1948441 0.73573875 -0.2510617 0.06229161 7.3973403 0.6206824
0.32400668 2.7256157 2.1451147 0.20995614 -0.06657357 -1.0859265 -0.66502887 0.01625238
-1.4211841 1.2559227 -0.55766386 0.025685243 0.07190303 -0.17787361 -0.991139 4.4947624
-2.5959864 0.18049836 -1.7300886 -0.9759623 0.058897246 1.7910048 0.30692378 0.36073565
0.3277664 -0.70022106 0.0017468728 2.6676862 0.8006887 -0.033791684 -0.47228798 0.7378647
0.28533074 -0.15652008 -0.6049762 -0.43097103 -0.29873312 -0.08492969 -0.16173555 -0.8149125
3.6498954 -0.8501629 -0.6172731 1.5223126 2.666569 0.7376153 0.8769708 0.22990772
-1.1140164 3.1905124 0.36118227 0.95814383 -0.018397484 5.944202 -1.1172196 3.5702958
-0.5206198 -0.2924185 2.9227278 0.0057336106 -0.7227746 -0.30960855 -0.4123056 -0.30832806
-0.5410449 0.6948865 0.8527333 0.13016897 1.8920423 0.37007847 -0.9224626 -0.40411255
2.580586 -1.0817509 0.8257842 0.59059644 -0.22801842 -0.15177777 3.54147 1.7729616
1.3155826 1.8987147 0.00036775135 -1.8373195 0.36263034 -0.14988086 0.67985606 0.09133745
-0.4296745 1.9807312 0.23468842 0.87208104 -0.5716114 -0.7576254 -0.19560924 -1.0087025
-0.32977813 -0.008461921 -0.87571526 -1.6482317 -0.31766912 0.7024408 -0.1355351 -0.24510512
0.56437767 -0.31976715 0.30287495 -0.118544415 -0.1336297 -0.4010753 0.5940926 -1.0357373
-0.05247139 -4.4351864 -0.5432393 0.6129082 2.3874905 0.55709034 -2.2740993 -0.6328305
1.374534 -0.36581457 0.37924343 4.275332 -1.738959 0.38270596 1.3936824 -1.5969428
-0.15649775 0.62213004 0.11464956 -1.5695745 -0.05340785 2.4417906 0.8085961 0.13633211
1.2838738 -0.070616655 6.776721 -0.741494 0.6067305 0.7778925 -2.2702305 1.9201715
