scripts/weights/centers.npy (npy, 1408 bytes, 1 tensors)

array f4 [64, 5]
0	0x3f33039e	0.69927394
1	0x3f93be1b	1.154239
2	0x3eeaee38	0.4588487
3	0x3f9ab065	1.2085081
4	0x3e9a3ccc	0.3012451
5	0x3f4fd07d	0.811775
6	0xbed59cfe	-0.41721338
7	0xbdec2db6	-0.11532156
8	0xbf08efb4	-0.5349076
9	0xbdc50fbf	-0.09622144
10	0xbf96e1bb	-1.1787637
11	0x3d61823c	0.05505584
12	0xbde6a532	-0.11261977
13	0xbf1631b7	-0.5866961
14	0x3d896ed6	0.067105934
15	0x400925e0	2.1429367
16	0x3ef64b67	0.48104402
17	0x3f3cfa8b	0.738198
18	0xbec84b34	-0.39119875
19	0x3c9dc31e	0.019258078
20	0x40adaca2	5.4273233
21	0x3f30f0c7	0.691174
22	0x3f5e252b	0.86775464
23	0x3ee9fcaa	0.4570058
24	0x3fc3fa83	1.5310825
25	0xbe957807	-0.29193136
26	0xbfe71de9	-1.8056003
27	0xbb697a02	-0.00356257
28	0x400b670d	2.1781647
29	0xbde948a7	-0.113908105
30	0xbfcb9b21	-1.5906717
31	0x3e3873fd	0.18012996
32	0x40111cc5	2.267381
33	0xbefc8af9	-0.49324778
34	0x3d4832b6	0.048876487
35	0xc0737b0c	-3.8043852
36	0xbf0df50f	-0.55452055
37	0xbf0cc050	-0.54980946
38	0x3f1ee33c	0.6206548
39	0xbedbb3d8	-0.42910647
40	0x40a1c266	5.0549803
41	0x3e651772	0.22372225
42	0xbe8d9451	-0.2765222
43	0x3f8d5c32	1.1043761
44	0xbf89a6ee	-1.0754068
45	0xbe16b9d3	-0.14719324
46	0xbccfcbb3	-0.025365686
47	0x3fd3719c	1.6519046
48	0xbff8d087	-1.9438637
49	0xbc7eb164	-0.015545223
50	0xbfe7668a	-1.8078167
51	0x3fb40556	1.4064128
52	0xbdba1eec	-0.09087929
53	0x3f283900	0.65711975
54	0xbfb985b6	-1.449393
55	0x3fe26b6c	1.7689033
56	0xbce0e7d8	-0.027454302
57	0x3fed8cf9	1.8558646
58	0xbf8d6e81	-1.1049348
59	0x402c49c0	2.6920013
60	0xbf3c3067	-0.73511356
61	0x3f2c1155	0.67213947
62	0xbf4919f1	-0.7855521
63	0xbf89eff4	-1.0776353
64	0xbdf17bda	-0.11791201
65	0x3e91943d	0.2843341
66	0xbfa567e7	-1.2922333
67	0xbf022732	-0.5084106
68	0x3ee1b25b	0.44081387
69	0xbe5ed615	-0.21761353
70	0x3fc05639	1.5026313
71	0xbfbf6d97	-1.4955319
72	0x3dace347	0.08441787
73	0x3fb5f937	1.4216679
74	0xbed36352	-0.41286713
75	0xc05f667f	-3.4906309
76	0x3eaf1f8e	0.34203762
77	0x3fea429b	1.8301576
78	0x3e457b91	0.19285418
79	0xbf53ddc8	-0.82760286
80	0xc027ab1a	-2.6198182
81	0xbf360ed2	-0.71116364
82	0x3e09d47a	0.1345996
83	0x3f28a97b	0.65883607
84	0x3ecd0455	0.40042368
85	0xbebf03a1	-0.37307456
86	0xbf799ac4	-0.9750178
87	0x3f7e90ee	0.99439895
88	0x4031cc11	2.7780802
89	0x406c7bdb	3.6950595
90	0xbf25103f	-0.64477915
91	0x402db25b	2.714011
92	0x3fea1000	1.8286133
93	0x3ebefe48	0.37303376
94	0xbd612b17	-0.054972734
95	0x405d1891	3.4546244
96	0x3f14ca0d	0.58120805
97	0xbf15bee2	-0.5849439
98	0x3e907382	0.28213125
99	0x3fd6cf80	1.6782074
100	0xc08b6662	-4.356248
101	0xbed1dc7f	-0.40988538
102	0x403f3325	2.9874966
103	0x3fe5c054	1.7949319
104	0x3edbafd9	0.429076
105	0xbf2709b7	-0.652492
106	0xbf98f0a7	-1.1948441
107	0x3f3c5960	0.73573875
108	0xbe808b2a	-0.25106174
109	0x3d7f257d	0.06229161
110	0x40ecb703	7.3973403
111	0x3f1ee50b	0.6206824
112	0x3ea5e434	0.32400668
113	0x402e707d	2.7256157
114	0x4009498f	2.1451147
115	0x3e56febe	0.20995614
116	0xbd8857b9	-0.06657357
117	0xbf8affa4	-1.0859265
118	0xbf2a3f54	-0.6650288
119	0x3c8523b2	0.016252372
120	0xbfb5e95e	-1.4211843
121	0x3fa0c212	1.2559226
122	0xbf0ec30f	-0.55766386
123	0x3cd269db	0.025685241
124	0x3d9341e5	0.07190303
125	0xbe362480	-0.17787361
126	0xbf7dbb49	-0.991139
127	0x408fd518	4.4947624
128	0xc02624a4	-2.5959864
129	0x3e38d490	0.18049836
130	0xbfdd738a	-1.7300885
131	0xbf79d8ab	-0.97596234
132	0x3d713e3c	0.058897242
133	0x3fe53fa7	1.791005
134	0x3e9d251d	0.30692378
135	0x3eb8b258	0.36073565
136	0x3ea7d0ff	0.3277664
137	0xbf3341b0	-0.70022106
138	0x3ae4f753	0.0017468728
139	0x402abb5f	2.6676862
140	0x3f4cf9f1	0.8006888
141	0xbd0a6928	-0.03379169
142	0xbef1cfbd	-0.47228804
143	0x3f3ce4b4	0.73786473
144	0x3e9216df	0.28533074
145	0xbe2046cd	-0.15652008
146	0xbf1adfb9	-0.60497624
147	0xbedca83d	-0.43097106
148	0xbe98f38c	-0.29873312
149	0xbdadef9e	-0.08492969
150	0xbe259e01	-0.16173555
151	0xbf509e1d	-0.8149126
152	0x406997e3	3.6498954
153	0xbf59a447	-0.8501629
154	0xbf1e059c	-0.6172731
155	0x3fc2db24	1.5223126
156	0x402aa911	2.666569
157	0x3f3cd45b	0.7376153
158	0x3f608129	0.8769708
159	0x3e6b6cee	0.22990772
160	0xbf8e9817	-1.1140164
161	0x404c315b	3.1905124
162	0x3eb8ece2	0.36118227
163	0x3f7548ea	0.95814383
164	0xbc96b652	-0.018397484
165	0x40be36e7	5.944202
166	0xbf8f010d	-1.1172196
167	0x40647fba	3.5702958
168	0xbf054757	-0.5206198
169	0xbe95b7e1	-0.2924185
170	0x403b0df9	2.9227278
171	0x3bbbe0ff	0.0057336087
172	0xbf3907c2	-0.7227746
173	0xbe9e8503	-0.30960855
174	0xbed319b8	-0.4123056
175	0xbe9ddd2c	-0.30832803
176	0xbf0a81eb	-0.5410449
177	0x3f31e414	0.69488645
178	0x3f5a4cbd	0.85273343
179	0x3e054b04	0.13016897
180	0x3ff22e71	1.8920423
181	0x3ebd7aed	0.37007847
182	0xbf6c2682	-0.9224626
183	0xbecee7d7	-0.40411255
184	0x40252852	2.580586
185	0xbf8a76d0	-1.0817509
186	0x3f536699	0.82578427
187	0x3f173154	0.59059644
188	0xbe697da7	-0.22801839
189	0xbe1b6ba0	-0.15177774
190	0x4062a772	3.54147
191	0x3fe2f068	1.7729616
192	0x3fa86503	1.3155826
193	0x3ff30915	1.8987147
194	0x39c0cec0	0.00036775135
195	0xbfeb2d49	-1.8373195
196	0x3eb9aaaf	0.36263034
197	0xbe197a5f	-0.14988087
198	0x3f2e0b0c	0.67985606
199	0x3dbb0f21	0.09133745
200	0xbedbfe4d	-0.42967454
201	0x3ffd889b	1.9807314
202	0x3e705229	0.23468842
203	0x3f5f40b5	0.8720811
204	0xbf125521	-0.57161146
205	0xbf41f3ba	-0.7576252
206	0xbe484dca	-0.19560924
207	0xbf811d2a	-1.0087025
208	0xbea8d8b0	-0.3297782
209	0xbc0aa3db	-0.008461918
210	0xbf602ee0	-0.87571526
211	0xbfd2f942	-1.6482317
212	0xbea2a586	-0.3176691
213	0x3f33d328	0.70244074
214	0xbe0ac9b7	-0.1355351
215	0xbe7afcd7	-0.24510513
216	0x3f107b0e	0.56437767
217	0xbea3b885	-0.31976715
218	0x3e9b126c	0.30287492
219	0xbdf2c76a	-0.118544415
220	0xbe08d639	-0.1336297
221	0xbecd59bd	-0.40107527
222	0x3f181675	0.59409267
223	0xbf849309	-1.0357372
224	0xbd56ec3d	-0.052471388
225	0xc08ded0c	-4.4351864
226	0xbf0b11bb	-0.5432393
227	0x3f1ce78d	0.6129082
228	0x4018cca6	2.3874907
229	0x3f0e9d7a	0.5570904
230	0xc0118ad7	-2.274099
231	0xbf22012e	-0.6328305
232	0x3faff0ba	1.3745339
233	0xbebb4c0b	-0.36581454
234	0x3ec22c32	0.37924343
235	0x4088cf85	4.275332
236	0xbfde9635	-1.738959
237	0x3ec3f209	0.38270596
238	0x3fb2642f	1.3936824
239	0xbfcc689f	-1.5969428
240	0xbe2040f2	-0.15649775
241	0x3f1f43e9	0.62213
242	0x3deacd63	0.11464956
243	0xbfc8e7d1	-1.5695745
244	0xbd5ac230	-0.053407848
245	0x401c464c	2.4417906
246	0x3f4f0027	0.8085961
247	0x3e0b9aa5	0.13633211
248	0x3fa455fa	1.2838738
249	0xbd909f78	-0.07061666
250	0x40d8dae6	6.776721
251	0xbf3dd28d	-0.741494
252	0x3f1b52b1	0.6067305
253	0x3f4723f6	0.7778925
254	0xc0114b75	-2.2702305
255	0x3ff5c830	1.9201717
