scripts/weights/centers.npy (npy, 1664 bytes, 1 tensors)

array f4 [64, 6]
000000 a4 47 53 3f a1 0a 0f bf 08 ba e4 3f 6f 78 8d 3f
       0.8253119 -0.55875593 1.7869272 1.1052378
000010 ff 25 a4 3e 63 65 cb bc e0 28 80 3f 10 5a 29 bf
       0.3206024 -0.024828618 1.0012474 -0.6615305
000020 9a 16 51 be 3a e2 31 bf 4b 36 2a be 69 85 00 be
       -0.20418778 -0.6948582 -0.16622274 -0.12550892
000030 35 5e fd bd 93 7c 0e 3f 66 15 66 3e 4a da 68 bf
       -0.12371484 0.55658835 0.224691 -0.9095808
000040 ef 1f 14 bd be c4 37 3d 3c b7 56 bf 2e d6 88 40
       -0.036163267 0.044865362 -0.83873343 4.276145
000050 00 3e 16 3f f5 c4 85 be e2 ed 84 be 4a cd 3a 3f
       0.58688354 -0.2612683 -0.2596274 0.72969496
000060 b9 c8 1a 40 e1 58 d1 be 9f 24 8a be ac 73 f8 be
       2.4185011 -0.40888122 -0.26981065 -0.4852575
000070 5d 0e b4 be 82 79 38 bd be 3c fb bf 11 e7 43 be
       -0.35167208 -0.045037754 -1.9627912 -0.19131114
000080 51 a7 7d bf 05 4f 27 3f bb 94 eb 3d bc da 17 3d
       -0.9908343 0.6535495 0.115029775 0.037073836
000090 9f 1d 39 c0 6c dd 41 bd 78 39 a8 3f ca 37 3f 3f
       -2.892433 -0.047330305 1.3142538 0.746945
0000a0 b1 6d ae bf 0b f7 d8 ba 03 32 c1 40 d3 0e b9 3b
       -1.3627225 -0.0016553117 6.037355 0.005647519
0000b0 35 bf 60 bf b2 20 9e 3f bc 7d f3 bf aa af 8a be
       -0.8779176 1.2353728 -1.9022746 -0.27087146
0000c0 2f 8f 30 3f 97 cd eb 3f 58 40 3d 3f 17 3b 09 bf
       0.6896848 1.8422116 0.73926306 -0.5360579
0000d0 e5 16 2f 40 24 76 68 3f 2b 52 24 40 b1 99 8c 3f
       2.7357724 0.9080527 2.5675151 1.0984403
0000e0 84 3e 90 3f f6 76 91 3e e9 83 33 be 60 51 d4 3c
       1.1269078 0.28411072 -0.17530788 0.025917709
0000f0 9c 6e 13 3e c8 65 19 bf 1c 0a ba be 39 a2 52 bf
       0.14397663 -0.5992093 -0.36335838 -0.8227878
000100 65 1f 43 bc ad 50 3e bd 5f c7 3f bf 22 3a 53 be
       -0.0119093405 -0.046463657 -0.7491359 -0.20627645
000110 0b 6e cd bf 32 45 24 3f b0 6f 17 be a3 ba 54 3d
       -1.6049207 0.64168084 -0.14788699 0.051935803
000120 ee 67 05 be d3 c5 ca 3f a9 e3 21 3f 57 c0 a9 bf
       -0.13027927 1.5841621 0.63238007 -1.3261822
000130 21 66 47 be fb e0 7f 3f 7a c8 0f c0 28 6c 02 41
       -0.19472553 0.9995267 -2.246611 8.151405
000140 c5 0c 13 bd be 81 32 3d d0 0d a0 3e 3b da fb bf
       -0.03590085 0.043580763 0.31260538 -1.9675974
000150 f5 93 7f bf c5 61 5a bf bd 22 52 40 ef 0e 6c 3f
       -0.9983514 -0.85305434 3.2833703 0.92210287
000160 c5 9f 1e 3c a6 d5 84 be 6b c1 2c c0 5e 5c 92 3f
       0.009681647 -0.2594425 -2.6993053 1.1434438
000170 b7 dd ce 3d 91 7f ce 3e 1b 3e 6c 3e 73 2f 31 3f
       0.101008825 0.403317 0.23070566 0.69213027
000180 c8 8c 21 40 0b 4f 5d 40 55 36 aa bd eb de 0c 3f
       2.5242176 3.4579494 -0.08311144 0.55027646
000190 06 3e 24 3e 41 91 08 40 ac 11 93 40 4a aa 0b bf
       0.16039285 2.1338656 4.595907 -0.54556715
0001a0 93 5d d0 3e eb f3 05 3f aa da 4d bf 4a d0 b9 bc
       0.4069639 0.52325314 -0.8041178 -0.022682328
0001b0 0b 49 a5 bd 1f eb 64 bf 86 d9 b4 3e 77 f2 ff 3e
       -0.080705725 -0.89421266 0.35322207 0.49989673
0001c0 71 0e 33 40 e3 32 e1 bd a5 c4 b9 bf 1c d6 77 bf
       2.7977564 -0.10996034 -1.4513136 -0.9681108
0001d0 17 0f 8b 3f 80 e5 ad be 67 3a be bc e4 c7 80 be
       1.086398 -0.33964157 -0.023221208 -0.25152504
0001e0 3d 70 2e 40 d9 fe a0 3d 50 e8 de bf 20 cf df 3f
       2.7256005 0.07861108 -1.7414646 1.7485085
0001f0 b4 60 89 bf 70 2a 70 3d 4c ad a9 3f 1b 16 90 be
       -1.0732636 0.05863422 1.3256011 -0.28141865
000200 5b e2 89 bf 0d e1 4e 3f 11 94 61 be c5 4f 23 3d
       -1.0772203 0.8081215 -0.22029139 0.039870996
000210 c0 f6 35 bf 8a 4e 4b bf 90 1f 80 be 43 94 65 bf
       -0.71079636 -0.79416716 -0.2502408 -0.89679354
000220 78 33 a6 3c 68 7c 12 be 55 0a cb be 52 61 a9 be
       0.020288214 -0.1430527 -0.3965632 -0.33082062
000230 07 70 d3 bf 9e 0d 05 40 86 c9 d5 bb b9 19 1a be
       -1.6518563 2.0789561 -0.0065242676 -0.15048875
000240 5d 5c 3d 3f 63 72 3d bf 82 36 a3 bc 1a f2 bc 3e
       0.7396906 -0.74002665 -0.019923452 0.3690346
000250 90 8e b5 3e ab 32 6a be c0 04 0e 41 d4 e0 49 be
       0.3546033 -0.22870891 8.87616 -0.19714671
000260 cd d6 72 3f 72 ac 05 40 bc b0 d9 3f 22 37 b8 3d
       0.9485901 2.0886502 1.700706 0.08994891
000270 e2 12 d8 3e 80 50 4d 40 bd d3 1b 3d 20 7d 86 bf
       0.42201906 3.2080383 0.038043726 -1.0506935
000280 98 0d 9e bd c7 27 f2 3d f1 2a 66 40 61 a7 47 bf
       -0.077174366 0.11823993 3.596371 -0.77989775
000290 2d e6 b5 3e 6b c9 96 3e ca cb f4 3f a2 d6 21 be
       0.35527173 0.29450545 1.9124691 -0.15804532
0002a0 4c c0 e2 3e 6f be e8 3e c9 63 a6 bd 63 1c 32 bf
       0.44287336 0.4545779 -0.08124501 -0.69574565
0002b0 40 e8 0c be 16 13 4b 3f 2e 5e 5a 3f ed 93 b6 3f
       -0.13760471 0.79326 0.85299957 1.4263893
0002c0 ed a7 5f be f2 3f 94 be 57 e7 00 be 53 d3 2d 3d
       -0.21841402 -0.28955036 -0.12588249 0.042437863
0002d0 25 a1 f8 bf cb aa 09 bf d6 68 b0 3e 92 04 01 3f
       -1.9424177 -0.53776234 0.34454983 0.503976
0002e0 86 94 1b 3e f0 ef 2f bd 1d a8 10 c0 73 de 17 40
       0.15193376 -0.04295343 -2.2602608 2.3729522
0002f0 b4 8f 60 bf 9a f2 66 3f 14 21 9e 3e 6e 41 d2 bf
       -0.87719274 0.9021393 0.30884612 -1.6426218
000300 60 34 0d be 85 4f 12 bf b5 a5 0b 3f 23 10 aa bf
       -0.1378951 -0.5715259 0.54549724 -1.3286175
000310 86 58 3e be 9c 1c ce 3d f2 f8 85 c0 e7 57 03 40
       -0.18588457 0.100640506 -4.186639 2.0522401
000320 ca fd b7 3e b1 d9 1a 40 38 8b ec bc c2 57 52 3f
       0.35935813 2.4195368 -0.028874978 0.8216516
000330 12 b9 8c bb fe bf 53 3f cb 6f 4d bf 93 e4 54 40
       -0.004294523 0.8271483 -0.8024871 3.326451
000340 e1 32 6c 40 77 e8 15 3e 9d b5 18 c0 96 78 0f be
       3.6906054 0.1463946 -2.3860848 -0.14010844
000350 f7 ac 0d bf 73 cf db 3f 59 90 fe 3e e2 ac 49 bc
       -0.5534205 1.7172683 0.49719504 -0.012309285
000360 53 ff 6f bf 01 a2 30 bd 72 3d 17 bf e0 b9 b0 be
       -0.9374897 -0.04312325 -0.59078133 -0.3451681
000370 b7 4c 18 bc 0a 4f a4 3e 0d ae 61 40 d6 27 1a bf
       -0.009295634 0.32091552 3.5262482 -0.60217035
000380 3a e8 01 40 88 a7 03 40 50 61 9a 3d c2 83 36 be
       2.029799 2.0571003 0.07538092 -0.17823699
000390 ff 06 86 be d4 4a 24 3f 72 6c 69 bf d5 fb fb 3e
       -0.26177213 0.6417668 -0.911811 0.4921557
0003a0 b6 dd 67 3b 4c 2a 16 3f ae 7a 5f bf 93 5a a6 3f
       0.0035379953 0.5865829 -0.8729657 1.2996391
0003b0 13 7c 54 40 3f 90 66 3f d9 16 cb 3d 93 1b 81 3e
       3.320073 0.9006385 0.09916467 0.2521635
0003c0 ee 86 b9 3f f4 0b 26 40 c4 74 8a bf 0d 89 e5 3e
       1.4494302 2.5944796 -1.0816884 0.44831124
0003d0 63 fb a4 be cc d2 b2 bf 5c f3 fe be 8d 1c bb 40
       -0.32223043 -1.397058 -0.49795043 5.847235
0003e0 ab 1f 6f 3e a9 65 fe 3d b2 23 0e 3e b1 66 02 bf
       0.23351924 0.12421734 0.13880804 -0.50937945
0003f0 98 29 52 3e dd f9 14 bf 74 54 b6 3e 70 9c b0 3e
       0.2052368 -0.5819376 0.35611308 0.34494352
