scripts/weights/cluster_stats.npz (npz, 1810 bytes, 3 tensors)

mu f4 [64]
00000000: 9e03 333f 7ed0 4f3f bde1 96bf df25 0940
00000010: a2ac ad40 0878 95be 219b cbbf 0c7b 73c0
00000020: 66c2 a140 d2b9 16be 8a66 e7bf 6c6b e23f
00000030: 6830 3cbf 3e94 913e 3856 c03f 7f66 5fc0
00000040: 1aab 27c0 a203 bfbe 3e10 25bf 9018 5d40
00000050: 6266 8bc0 b809 27bf 03b7 ec40 befe 563e
00000060: 5ee9 b5bf 8024 36be 8a73 ddbf 57b2 b83e
00000070: eff9 4c3f cd46 20be 009e 25be 25db c23f
00000080: 1898 8ebf e636 be40 fa0d 3b40 2ddd 9dbe
00000090: 722e f23f d176 8abf 71a7 6240 472d ebbf
000000a0: 4efe dbbe bdf3 41bf e22e 60bf d5fc 7abe
000000b0: 36d6 08be 0ded 8dc0 d68a 11c0 85cf 8840
000000c0: f440 20be 4b46 1c40 e4da d840 30c8 f53f
000000d0: 6e97 863f 6205 063f 9783 f13f b8a6 853f
000000e0: 6fd5 3cc0 8793 0240 e008 a4bf 8d57 8140
000000f0: 3fd0 493f 255d 343d e266 8d3f af8b 2541
0.69927394 0.8117751 -1.178764 2.1429365 5.4273233 -0.2919314 -1.5906717 -3.8043852
5.0549803 -0.14719322 -1.8078167 1.7689033 -0.7351136 0.28433412 1.5026312 -3.4906309
-2.6198182 -0.3730746 -0.6447791 3.4546242 -4.356248 -0.65249205 7.3973403 0.20995614
-1.4211843 -0.17787361 -1.7300885 0.36073563 0.8006887 -0.15652008 -0.16173553 1.5223128
-1.1140165 5.9442015 2.922728 -0.30832806 1.8920424 -1.081751 3.5414698 -1.8373193
-0.42967457 -0.7576254 -0.8757154 -0.2451051 -0.13362965 -4.435187 -2.2740989 4.275332
-0.15649778 2.4417903 6.77672 1.9201717 1.0514963 0.52351964 1.8868283 1.0441504
-2.950527 2.0402544 -1.2815208 4.0419374 0.78833383 0.044034142 1.1047022 10.346602

var f4 [64]
00000000: 894e 133e 0df0 c83d 68c5 1e3e 227d 4e3e
00000010: cdf7 923f 38bc 753e 6d62 af3e 25dc 0d3f
00000020: 3dd8 9e3e f377 f03d ab8b a13e 2837 c43f
00000030: bd61 ea3d 459e 203e b9b2 2f3e bf95 743e
00000040: 8083 393e c0ba b53f f2b6 813e 48fe c63e
00000050: 4018 613f 40a1 3e3e e31a 2a40 0815 8d3d
00000060: 459e 293e 2a7f d73f 3263 683e 6972 3e3e
00000070: 3602 483e d721 b33d 94bf 1c3f b132 a63e
00000080: 2959 603e 12b4 a13f 4073 8d3e f3ab 913e
00000090: 260c 043e 4bdd 543e 4941 0b3f da25 693e
000000a0: 6317 9c3e cae7 c23d 3ce8 f03d 13e2 013e
000000b0: de9f 103e 78f1 b73e 0458 a13e 312b 473f
000000c0: 8882 d63d 01b8 653e db23 973e 1b4a 0b3e
000000d0: ad07 163e 80d4 063f cbdf ff3e 52f8 0f3e
000000e0: d2c5 443e 19cd 5a3e e31c 083e 605a d13e
000000f0: de95 463e 05bc 3d3d 3632 aa3e cb48 913e
0.14385428 0.09811411 0.15504992 0.20164922 1.1481873 0.23997581 0.3425478 0.5541404
0.31024352 0.117416285 0.3155187 1.5329332 0.11444423 0.15685375 0.17158021 0.23885249
0.1811657 1.4197617 0.2533489 0.38865876 0.8792763 0.186162 2.657891 0.06888777
0.16564281 1.6835682 0.2269409 0.18598332 0.19532093 0.08746689 0.61229825 0.3246055
0.21909012 1.2633078 0.2762699 0.284515 0.1289526 0.20787542 0.5439649 0.22768345
0.30486593 0.095168665 0.11763045 0.12683897 0.14123484 0.35926414 0.31512463 0.7780028
0.104741156 0.22433473 0.29519543 0.13602488 0.14651366 0.52668 0.49975428 0.1405957
0.19216087 0.21367301 0.1329227 0.40889263 0.19393107 0.046321888 0.33241433 0.2837585

var_down f4 [64]
00000000: 894e 133e 0df0 c83d 68c5 1e3e 227d 4e3e
00000010: cdf7 923f 6c0e b23d 6d62 af3e 25dc 0d3f
00000020: 3dd8 9e3e a472 3f3d ab8b a13e 2837 c43f
00000030: bd61 ea3d 9ffb 813c b9b2 2f3e bf95 743e
00000040: 8083 393e 919d bb3d 23af 603e 48fe c63e
00000050: 4018 613f 6cfa fa3d e31a 2a40 6f3c 993c
00000060: 459e 293e de57 5b3f 3263 683e a559 893d
00000070: 3602 483e 76a8 353d 1c5a 0b3e b132 a63e
00000080: 2959 603e 12b4 a13f 4073 8d3e 343d 193e
00000090: 260c 043e 4bdd 543e 4941 0b3f da25 693e
000000a0: 5a23 3e3e cae7 c23d 3ce8 f03d f372 993d
000000b0: a8b4 963d 78f1 b73e 0458 a13e 312b 473f
000000c0: af58 133d 01b8 653e db23 973e 1b4a 0b3e
000000d0: ad07 163e 8ff7 5a3d cbdf ff3e 52f8 0f3e
000000e0: d2c5 443e 19cd 5a3e e31c 083e 605a d13e
000000f0: de95 463e 34d7 723c 3632 aa3e cb48 913e
0.14385428 0.09811411 0.15504992 0.20164922 1.1481873 0.08694157 0.3425478 0.5541404
0.31024352 0.04674019 0.3155187 1.5329332 0.11444423 0.015867053 0.17158021 0.23885249
0.1811657 0.09160913 0.2194181 0.38865876 0.8792763 0.122547954 2.657891 0.018705575
0.16564281 0.8568095 0.2269409 0.067065515 0.19532093 0.04435011 0.13608593 0.3246055
0.21909012 1.2633078 0.2762699 0.14964753 0.1289526 0.20787542 0.5439649 0.22768345
0.18568173 0.095168665 0.11763045 0.07492628 0.07358676 0.35926414 0.31512463 0.7780028
0.035973247 0.22433473 0.29519543 0.13602488 0.14651366 0.053458747 0.49975428 0.1405957
0.19216087 0.21367301 0.1329227 0.40889263 0.19393107 0.014821816 0.33241433 0.2837585
