scripts/weights/cluster_stats.npz (npz, 1815 bytes, 3 tensors)

mu f4 [64]
0	0x3f5347a2	0.8253118
1	0x3f8028df	1.0012473
2	0xbdfd5e36	-0.12371485
3	0xbf56b73d	-0.8387335
4	0x401ac8ba	2.4185014
5	0xbffb3cbc	-1.962791
6	0xc0391d9f	-2.892433
7	0x40c13203	6.037355
8	0x3f308f2e	0.68968475
9	0x4024522b	2.5675151
10	0x3e136e9d	0.14397664
11	0xbf3fc75f	-0.7491359
12	0xbe0567ed	-0.13027926
13	0xc00fc87a	-2.246611
14	0xbf7f93f3	-0.9983513
15	0xc02cc16b	-2.6993053
16	0x40218cc8	2.5242176
17	0x409311ac	4.595907
18	0xbda5490e	-0.08070575
19	0xbfb9c4a6	-1.4513137
20	0x402e703e	2.7256007
21	0x3fa9ad4c	1.3256011
22	0xbf35f6c2	-0.7107965
23	0xbecb0a56	-0.39656323
24	0x3f3d5c5c	0.73969054
25	0x410e04c0	8.87616
26	0x3ed812e0	0.422019
27	0x40662af1	3.596371
28	0x3ee2c04b	0.44287333
29	0x3f5a5e2d	0.8529995
30	0xbff8a123	-1.9424175
31	0xc010a81e	-2.260261
32	0xbe0d3460	-0.1378951
33	0xc085f8f2	-4.186639
34	0xbb8cb925	-0.004294532
35	0xc018b59d	-2.3860848
36	0xbf6fff56	-0.93748987
37	0x4061ae0c	3.526248
38	0xbe8606fe	-0.2617721
39	0xbf5f7aae	-0.8729657
40	0x3fb986ec	1.44943
41	0xbefef35c	-0.49795043
42	0x3e52299b	0.20523684
43	0xbf2c0bef	-0.6720571
44	0xbfa0c2fd	-1.2559506
45	0x400cb0b8	2.198286
46	0x3e63a1c8	0.22229683
47	0x40b25c79	5.573788
48	0x3fa9753b	1.3238901
49	0x3fc64d33	1.5492309
50	0x3ee55dbc	0.44798076
51	0xbfae7b44	-1.3631368
52	0x403ccac3	2.9498756
53	0x3fa7283f	1.3059157
54	0xc08f05d6	-4.4694624
55	0xbfa3e3af	-1.2803859
56	0xbe42228e	-0.18958494
57	0xc0774899	-3.863806
58	0xbf42270c	-0.7584083
59	0xb225908c	-9.63713e-09
60	0xbf01cd88	-0.5070424
61	0xbf9b05a6	-1.2111099
62	0xbf45ca49	-0.7726179
63	0x3e4a51bf	0.19757746

var f4 [64]
0	0x3e9f4ce5	0.31113353
1	0x3de5977d	0.11210535
2	0x3e0ee401	0.13954164
3	0x3f750534	0.95711064
4	0x3e85d23e	0.26136965
5	0x3e40841b	0.18800394
6	0x3eb5fee8	0.3554604
7	0x3f1e4448	0.6182294
8	0x3f0e0b63	0.55486125
9	0x3f1bc72b	0.6085078
10	0x3d6ac775	0.057319123
11	0x3e19c8df	0.15018032
12	0x3e30d1d2	0.1726754
13	0x402b7ad3	2.6793716
14	0x3e84637a	0.25857145
15	0x3e5889cc	0.21146315
16	0x3f45c9ab	0.77260846
17	0x3e9e357e	0.30900186
18	0x3f22e9c7	0.63637966
19	0x3e3cb77b	0.18429367
20	0x3f26a0fe	0.65089405
21	0x3e4b6c5a	0.19865552
22	0x3daf76a2	0.08567549
23	0x3ecdc240	0.40187263
24	0x3e3fb17f	0.18720053
25	0x3fd6a0db	1.6767839
26	0x3eacd388	0.33755136
27	0x3f0aa698	0.5416045
28	0x3e948323	0.290063
29	0x3e5b4b87	0.2141553
30	0x3e5dd33b	0.2166261
31	0x3f39c907	0.7257237
32	0x3e010e91	0.12603213
33	0x3f687968	0.9081025
34	0x3f96c4c8	1.1778803
35	0x3e93bc96	0.28854817
36	0x3ded6d8b	0.11593159
37	0x3ed90f18	0.42394328
38	0x3e61a94d	0.2203724
39	0x3e8000ca	0.25000602
40	0x3e7a4049	0.24438585
41	0x3f433ffd	0.76269513
42	0x3f107438	0.56427336
43	0x3e7988d9	0.2436861
44	0x3e4b9e44	0.19884592
45	0x3e2a9284	0.16657454
46	0x3da9c4e9	0.08289511
47	0x3f83f946	1.0310447
48	0x3ee31a0d	0.44355813
49	0x3ee71f2b	0.45140967
50	0x3f41009a	0.7539154
51	0x3f1abc22	0.6044332
52	0x3f6de01a	0.92920077
53	0x3f0a5369	0.54033524
54	0x3ec39da4	0.38206208
55	0x3e584163	0.21118693
56	0x3f0964d3	0.5366947
57	0x3ee135e0	0.43986416
58	0x3ed4ce67	0.41563722
59	0x404d569f	3.208412
60	0x3e0ebec3	0.13939957
61	0x3e208bd7	0.15678345
62	0x3eb33e75	0.35008588
63	0x3e0f84a8	0.14015448

var_down f4 [64]
0	0x3e9f4ce5	0.31113353
1	0x3de5977d	0.11210535
2	0x3d896cc3	0.06710198
3	0x3f196ad0	0.5992861
4	0x3e85d23e	0.26136965
5	0x3e40841b	0.18800394
6	0x3eb5fee8	0.3554604
7	0x3f1e4448	0.6182294
8	0x3f0e0b63	0.55486125
9	0x3f1bc72b	0.6085078
10	0x3c2c49ed	0.010515672
11	0x3de2b6e4	0.1107004
12	0x3d5d4b06	0.054026626
13	0x3fc73968	1.5564394
14	0x3e84637a	0.25857145
15	0x3e5889cc	0.21146315
16	0x3f45c9ab	0.77260846
17	0x3e9e357e	0.30900186
18	0x3ec7b2cd	0.39003602
19	0x3e3cb77b	0.18429367
20	0x3f26a0fe	0.65089405
21	0x3e4b6c5a	0.19865552
22	0x3daf76a2	0.08567549
23	0x3e19ff46	0.15038785
24	0x3e3fb17f	0.18720053
25	0x3fd6a0db	1.6767839
26	0x3d10b111	0.035325114
27	0x3f0aa698	0.5416045
28	0x3cf55a06	0.029950153
29	0x3e5b4b87	0.2141553
30	0x3e5dd33b	0.2166261
31	0x3f39c907	0.7257237
32	0x3d2890ff	0.041153904
33	0x3f687968	0.9081025
34	0x3f96c4c8	1.1778803
35	0x3e93bc96	0.28854817
36	0x3ded6d8b	0.11593159
37	0x3ed90f18	0.42394328
38	0x3dbef70c	0.09324464
39	0x3e8000ca	0.25000602
40	0x3e7a4049	0.24438585
41	0x3ec09d73	0.37620124
42	0x3dbd7531	0.09250868
43	0x3e5578b2	0.20846823
44	0x3e4b9e44	0.19884592
45	0x3e2a9284	0.16657454
46	0x3da9c4e9	0.08289511
47	0x3f83f946	1.0310447
48	0x3ee31a0d	0.44355813
49	0x3ee71f2b	0.45140967
50	0x3d8ea975	0.06965915
51	0x3ef759c8	0.48310685
52	0x3f6de01a	0.92920077
53	0x3f0a5369	0.54033524
54	0x3ec39da4	0.38206208
55	0x3e584163	0.21118693
56	0x3e7a0919	0.24417533
57	0x3ee135e0	0.43986416
58	0x3dea2e46	0.11434607
59	0x3f6e5b05	0.93107635
60	0x3e01bc26	0.12669429
61	0x3e208bd7	0.15678345
62	0x3e81409d	0.2524461
63	0x3c7426d8	0.014901839
