prediction_engine/testing_validation/weights/walkforward/fold_0/centers.npy (npy, 1664 bytes, 1 tensors)

array f4 [64, 6]
000000 45 00 7b bd 66 ed 8d be db 54 2e bf af c0 0e 3e
       -0.061279554 -0.27720183 -0.6809823 0.1394069
000010 bd 04 a8 be 9d 7f 7e be 7f 78 54 bf 00 b9 61 bf
       -0.32816115 -0.24853368 -0.8299636 -0.8817291
000020 b6 7c e1 3e 0c 50 30 bf 08 bc e8 3e ad 7e 8a bd
       0.4404046 -0.6887214 0.45455956 -0.06762443
000030 83 fb 19 40 47 74 95 3e b3 0b c7 3f 2b ba 97 be
       2.405976 0.29190275 1.5550445 -0.29634222
000040 11 c1 9c be 5d 2a 54 bd c4 cc 30 c0 d5 30 20 bf
       -0.30616048 -0.051798213 -2.762498 -0.6257451
000050 8e 71 65 3f f0 b2 e3 3f 9b 42 f1 3d 8c 31 7b 3e
       0.89626396 1.7788982 0.11780282 0.2453062
000060 5f 3d 08 3f 6b 58 a7 40 72 04 ec be f0 b2 85 39
       0.53218645 5.229543 -0.46097142 0.00025501056
000070 97 0e ab 3f f6 79 11 be b2 33 4f 3f e1 2a 4e bf
       1.3363827 -0.1420668 0.80938256 -0.8053418
000080 3c e7 9d 3e f0 e1 f1 3e 09 2e a1 3e 21 f0 45 3d
       0.3084048 0.4724269 0.31480435 0.048324708
000090 76 d2 b8 bf f0 40 4e 3c c8 76 44 3f ba e1 12 be
       -1.4439228 0.0125887245 0.76743746 -0.1434392
0000a0 52 fb c7 be b5 72 b5 bd 8f 8a db 40 d9 7d 45 bf
       -0.3905893 -0.08859769 6.860664 -0.77145153
0000b0 2d cf eb 3e 73 ca b0 3f 4b 6e ac be d1 7e 8c bf
       0.460565 1.3811783 -0.33677897 -1.0976201
0000c0 b9 f0 0d 3c 31 1c 73 bf 5b c2 d1 be fb 22 f1 be
       0.00866335 -0.9496489 -0.40968594 -0.47097
0000d0 f1 f6 c7 3e ff a2 a7 be 0b e7 4d 40 9b d7 a2 bf
       0.3905559 -0.32741544 3.2172267 -1.2722048
0000e0 9e 22 1f c0 3d 24 cb 3f 31 68 0f 3e d7 9c a1 3d
       -2.4864879 1.5870434 0.1400459 0.07891243
0000f0 62 ba be bf 0a 9c b6 3d 0a 60 bc bf 66 ca 74 3f
       -1.490063 0.08916481 -1.4716809 0.95621336
000100 55 a5 51 be a7 e0 67 bf f7 b1 c6 be 74 d5 a9 3f
       -0.20473225 -0.9057717 -0.3880765 1.3268266
000110 02 83 83 bc 4b 92 c4 be 87 d0 9d bf 93 2f 1d 3e
       -0.01605368 -0.38392863 -1.2329262 0.1535018
000120 a9 f4 81 bf 30 b0 9b 40 7c 30 08 bf e3 77 ee 3e
       -1.0152789 4.8652573 -0.5319898 0.4657584
000130 b7 88 80 bf 71 62 9e 3e 56 11 38 40 26 db 93 3f
       -1.0041722 0.3093448 2.876058 1.1551254
000140 a8 28 ce be 7b f8 32 be d1 f7 5f bf 20 44 c3 3e
       -0.40265393 -0.174776 -0.8748751 0.38137913
000150 d4 dc c7 bf a2 33 32 bd fd 73 c5 3f 3c 35 e7 3e
       -1.5614266 -0.043506272 1.5426022 0.45157802
000160 30 87 06 be 05 08 82 3d 39 92 02 40 2a d8 13 40
       -0.13137507 0.06349186 2.0401747 2.3100686
000170 f4 ff 8d bf eb a9 c6 be 2e 72 04 40 50 6a 3b bf
       -1.1093736 -0.38801512 2.069469 -0.73209095
000180 45 94 bf 3f 95 01 2f 40 34 b8 b3 3f be 86 23 3f
       1.4967123 2.7344716 1.4040589 0.63877475
000190 fe 20 ac 3f 82 23 17 3e 0f b8 2d 3f e4 6b c1 be
       1.3447568 0.14759639 0.67858976 -0.37777627
0001a0 98 b7 be 3f d0 48 fc 3c da 29 88 3c fe 80 07 3e
       1.4899778 0.030796438 0.016621519 0.132328
0001b0 41 c6 a7 bf 3f 67 8c 3e ce 2d ba be 07 93 01 bf
       -1.3107377 0.2742252 -0.3636307 -0.5061497
0001c0 f9 d2 06 bf 94 d0 56 3d 61 ec 66 3f 59 eb 0d 40
       -0.5266567 0.05244501 0.90204436 2.2174895
0001d0 b7 e9 74 be c6 98 fb be db 0a 43 3e 08 4c e5 3d
       -0.2391728 -0.49139994 0.1904711 0.111961424
0001e0 6a 5a 3b 3e 99 fc 69 3e 3f 17 37 3f 8a b9 ba be
       0.18296209 0.22850265 0.71519846 -0.3646968
0001f0 5e 3b b0 be 78 66 2f bd 99 ff 37 c0 b6 30 f0 3f
       -0.34420294 -0.04282233 -2.8749754 1.8764865
000200 c8 6e c6 3e 08 f1 b2 3f 89 a1 e3 3f d3 08 c6 3d
       0.38756394 1.3979807 1.7783672 0.09669652
000210 4c 58 c6 bf bf 2f 97 bf 73 ef 37 bf 87 a7 b3 3e
       -1.5495696 -1.1811446 -0.71849746 0.3508875
000220 cf 7d 0a 3f d2 39 92 3d 4c 67 53 40 ff 77 28 bf
       0.5409822 0.071399346 3.3031797 -0.658081
000230 f6 b5 8c bd 07 0f 03 bf 41 b5 6a 3e f8 dd 7a 3f
       -0.06870644 -0.51194805 0.22920705 0.9799495
000240 b5 c0 89 3f 16 0e 35 3e 54 59 19 3e e7 5a 2e bf
       1.0761935 0.17681155 0.14975482 -0.68107456
000250 1c 56 b5 be a6 77 39 3e ee ca a0 3c 78 95 3c bf
       -0.3541726 0.18112049 0.019628014 -0.7366557
000260 36 ac 06 be 40 67 b5 bf f5 f4 b1 3e cb 80 93 bd
       -0.13151631 -1.4172134 0.347572 -0.072023
000270 24 21 cf be ef 6c f7 bd 4f b7 41 3e d4 2a 1e bf
       -0.40454972 -0.12081324 0.18917583 -0.617841
000280 8e 8e 7b be af 64 29 bc 0d a9 af 40 70 ae 78 bf
       -0.24566099 -0.010338946 5.489386 -0.9714117
000290 8a 75 cc bf 76 65 25 40 50 d3 85 bd 15 8f 79 3e
       -1.597337 2.5843177 -0.06534445 0.24370988
0002a0 7a 11 81 3f 70 bf c0 bf 8d 6a e9 bf d0 81 95 3f
       1.0083458 -1.5058422 -1.8235642 1.1680241
0002b0 29 df d3 3e 68 0a b5 bd 26 ba 8c bf 8d e3 51 bf
       0.41381195 -0.088398755 -1.0994308 -0.8198784
0002c0 59 e0 0b 40 b4 03 0b 3f 5f 64 02 3f 40 72 98 3e
       2.185568 0.54302526 0.50934404 0.29774666
0002d0 8e cb aa bf 6c b3 8b bf 27 4f dd 3e b5 dc 73 3f
       -1.334337 -1.091413 0.4322445 0.9525865
0002e0 8f e5 cd 3e 3f 79 c7 3d bc 21 91 be 7f be e6 bc
       0.40214202 0.09739923 -0.2834605 -0.028167007
0002f0 90 b0 c1 3f b8 c6 28 3e b9 9b 85 be 63 7b 79 3e
       1.5132008 0.16482055 -0.2609537 0.24363475
000300 57 0f b0 3d 1a 02 f6 40 ac b9 3e bf 6f d7 7c 3e
       0.08596676 7.6877565 -0.7450206 0.24691556
000310 e3 9f b1 40 62 63 81 bf 45 e4 48 40 16 ab f4 bd
       5.5507674 -1.0108454 3.1389325 -0.119466946
000320 62 72 a8 be 15 64 ac 3f 0f f0 71 be 51 af 04 3f
       -0.32899767 1.3468043 -0.23626731 0.5183001
000330 7a 81 df 3f df ae 1f 3f 71 c4 49 bf c1 e4 b0 be
       1.7461388 0.6237621 -0.7881537 -0.34549525
000340 69 fe ed 3e 8d 5a 9b 3f 31 f7 66 3f b1 7c 64 bf
       0.46483162 1.2137009 0.90220934 -0.89252764
000350 52 72 9e 3e ae be 4e bf 9e 9f d0 3e 49 a9 f9 bd
       0.30946594 -0.80759704 0.40746778 -0.12190492
000360 8d 82 4e c0 dd fa 17 bf e3 fe 25 bf 3c 88 ae 3f
       -3.2267182 -0.5936716 -0.6484205 1.3635325
000370 66 db 12 3c ec 03 3c 3d 8c 5b db 3f be 71 62 be
       0.0089634415 0.045902178 1.7137313 -0.22113702
000380 79 44 fb 3f 43 79 b9 3f 04 c0 f2 bd 60 ab 3d be
       1.9630271 1.4490131 -0.1185303 -0.18522406
000390 63 37 07 c0 c4 14 a9 3e 0e 21 45 be b0 2d f9 3f
       -2.1127555 0.33023655 -0.1925089 1.9467068
0003a0 39 d9 6e be 29 8a 1d 3f f2 18 2b c0 21 74 87 3f
       -0.23325051 0.6153894 -2.6733975 1.0582315
0003b0 31 ba 57 bf a3 0f f2 3e 12 fd 8e bf 01 90 13 3e
       -0.8426848 0.47277555 -1.1170981 0.14410402
0003c0 9b 8a b0 3f d0 7e b0 3e 0b 59 62 bf 32 e5 55 bf
       1.3792299 0.3447175 -0.8841712 -0.8355285
0003d0 6b 3a 35 bf 29 88 cc bd 18 9c a2 40 9d 5e f5 3f
       -0.70792264 -0.09986908 5.0815544 1.9169499
0003e0 b8 d0 3f 40 db af b7 3e 74 94 b4 bf 38 28 21 bf
       2.9971142 0.35876355 -1.4107804 -0.62951994
0003f0 52 83 89 40 bd 2f 2a 40 ac 06 06 bf 70 1d ad 3e
       4.2972803 2.6591637 -0.5235393 0.33811522
