prediction_engine/testing_validation/weights/walkforward/fold_0/cluster_stats.npz (npz, 1793 bytes, 3 tensors)

mu f4 [64]
000000 00 d0 a6 ba 66 9a db 3a 6e 48 97 ba 00 96 a2 b8
       -0.0012726784 0.0016754388 -0.0011541971 -7.752702e-05
000010 a0 ba d6 bb af 81 6d bb bf 3f 9f 3b 6e 09 70 3b
       -0.006553009 -0.0036240628 0.004859894 0.0036626714
000020 b8 7c c1 3a 00 f4 ff ba 00 fc 1d 3a 14 cb a0 ba
       0.00147619 -0.0019527674 0.00060266256 -0.0012267553
000030 00 5c fa 3a 1a 23 a7 3b 84 e5 df 3a 00 00 00 00
       0.0019100904 0.00510062 0.0017081951 0.0
000040 55 cb 10 3c d5 7b 5c bb bb 1d 52 3a 4f 8e 8a bb
       0.008837541 -0.0033643146 0.00080152944 -0.0042283903
000050 6d fb 52 bb 4d 22 49 3b 00 bb e0 39 72 77 03 bb
       -0.0032193318 0.003069061 0.00042863935 -0.0020060209
000060 9c f1 0f bb c8 04 74 ba 27 d0 f1 39 8e 87 36 3b
       -0.0021964079 -0.0009308574 0.00046122188 0.0027851793
000070 89 c6 e5 3a 8e 27 96 3a 00 78 a1 ba cb d0 8c bb
       0.0017530482 0.001145588 -0.0012319088 -0.004297351
000080 40 02 15 bc 1c a0 30 bb ba 34 3f ba ce 45 83 bb
       -0.009094775 -0.0026950901 -0.00072939286 -0.004006124
000090 39 63 aa 3a 00 5c 48 ba 80 8e 31 bb 3c f6 bf 3a
       0.0012999541 -0.00076431036 -0.0027092993 0.0014645527
0000a0 cd c4 94 3a 7a cc 12 b8 00 fe 83 39 8e b3 05 3a
       0.0011350155 -3.4999546e-05 0.00025175512 0.0005100303
0000b0 00 20 5d 39 25 c9 08 37 40 8f c9 3b 0b 25 53 3a
       0.00021088123 8.153064e-06 0.00615111 0.0008054531
0000c0 55 be a6 ba 33 81 aa 3b 72 7c 2e 3a 7a cc 12 b8
       -0.0012721518 0.00520339 0.0006656117 -3.4999546e-05
0000d0 cd c0 29 ba c0 5c 5e 3c c9 a9 38 bb 55 4c 3f bc
       -0.0006475568 0.013571918 -0.0028177372 -0.011675914
0000e0 7a cc 12 b8 8c 90 c2 3a b7 da 36 3b 48 a0 11 bc
       -3.4999546e-05 0.0014844104 0.002790136 -0.008888312
0000f0 ca bb 11 3b 5d 9c 46 ba 9c 0f c5 3a ab 36 a6 3b
       0.0022237175 -0.00075764005 0.0015034559 0.005072435

var f4 [64]
000000 04 2b 8c 38 31 3c 84 38 02 ec 2a 39 e4 96 13 39
       6.6837325e-05 6.305462e-05 0.00016300383 0.00014075224
000010 aa 7a 78 37 16 16 54 38 e6 2d a2 38 0e 0f 96 37
       1.4810512e-05 5.0565308e-05 7.733311e-05 1.7888404e-05
000020 9e c4 10 38 9d 66 4e 38 ea ba 5d 38 3f b1 3f 38
       3.451539e-05 4.9209793e-05 5.2864583e-05 4.5703022e-05
000030 14 a6 56 37 da 15 fe 37 61 0d b9 38 00 00 00 00
       1.2794062e-05 3.0289335e-05 8.8239794e-05 0.0
000040 63 3e 0a 39 f0 b9 6e 38 23 6a bb 38 0b 62 71 38
       0.00013183946 5.691679e-05 8.936624e-05 5.7550187e-05
000050 cb 1a 21 38 b9 8d 97 38 43 6b 98 38 9b c5 f2 37
       3.8410344e-05 7.226639e-05 7.267904e-05 2.8940665e-05
000060 f2 57 96 38 b3 33 33 38 a7 30 83 38 74 c8 01 38
       7.1689385e-05 4.2725074e-05 6.255629e-05 3.0942683e-05
000070 7d 61 6b 38 24 5b aa 38 20 62 b1 38 bc cd 7f 38
       5.611916e-05 8.123208e-05 8.458295e-05 6.0988343e-05
000080 3d 77 2d 39 54 69 d1 38 9c f4 18 38 f4 29 87 38
       0.00016542985 9.9855155e-05 3.6467434e-05 6.445116e-05
000090 fc bf 21 38 6d 58 da 38 80 a0 1e 38 18 f6 cd 38
       3.856419e-05 0.000104115206 3.7819613e-05 9.821e-05
0000a0 27 9d 18 38 ea 6d 99 38 ec 7b c8 38 c2 e5 2b 38
       3.6385984e-05 7.3160816e-05 9.5598254e-05 4.0983556e-05
0000b0 39 4c eb 37 82 8a 69 38 ce 1f 56 39 da 33 67 38
       2.8049677e-05 5.5680524e-05 0.00020420479 5.5122982e-05
0000c0 14 c5 32 38 bd d8 4c 38 10 9c cc 38 ea 6d 99 38
       4.262205e-05 4.8839243e-05 9.756547e-05 7.3160816e-05
0000d0 5e 5d 33 38 cb 40 81 38 2b 9e 7e 38 37 24 82 37
       4.276388e-05 6.163268e-05 6.0705624e-05 1.5514071e-05
0000e0 ea 6d 99 38 0d 63 48 38 e8 d5 4e 39 b4 8e fc 38
       7.3160816e-05 4.7775964e-05 0.00019725377 0.00012042877
0000f0 0f 91 9c 38 65 5c 37 38 ee 52 8a 38 ef 74 0d 39
       7.465679e-05 4.371665e-05 6.5958e-05 0.00013490369

var_down f4 [64]
000000 9a 38 53 37 4d 00 43 37 93 f9 a5 38 6e 8d 1f 38
       1.2589759e-05 1.1622976e-05 7.9143e-05 3.804027e-05
000010 85 b7 31 35 d0 87 a1 37 cd 0a 0c 37 0e 0f 96 37
       6.6204694e-07 1.9255938e-05 8.347165e-06 1.7888404e-05
000020 00 00 00 00 e2 92 4d 37 3c 69 45 34 dd 6d 80 37
       0.0 1.2253151e-05 1.8385339e-07 1.5309948e-05
000030 14 a6 56 37 da 15 fe 37 2a 5e 44 38 00 00 00 00
       1.2794062e-05 3.0289335e-05 4.681774e-05 0.0
000040 63 3e 0a 39 bb 47 9d 37 fc 44 73 38 aa fd a8 37
       0.00013183946 1.874926e-05 5.799996e-05 2.0145282e-05
000050 b2 46 5a 37 b9 8d 97 38 ec da cf 36 02 d7 14 37
       1.3010273e-05 7.226639e-05 6.1945666e-06 8.871548e-06
000060 fd 42 53 37 9a 03 87 34 08 ea ec 36 74 c8 01 38
       1.2592177e-05 2.514833e-07 7.060593e-06 3.0942683e-05
000070 7d 61 6b 38 3b 2d 59 34 e1 2a 59 37 d6 90 66 37
       5.611916e-05 2.0226155e-07 1.2944191e-05 1.37427905e-05
000080 3d 77 2d 39 39 4e 75 38 30 f1 16 35 6f b2 06 38
       0.00016542985 5.8485402e-05 5.623033e-07 3.211427e-05
000090 b7 4b c2 31 ad 72 83 38 b9 bb 4e 31 58 28 84 37
       5.654751e-09 6.267927e-05 3.0083653e-09 1.5754413e-05
0000a0 27 9d 18 38 3c ad ac 37 ec 7b c8 38 00 58 ad 30
       3.6385984e-05 2.0584666e-05 9.5598254e-05 1.2612418e-09
0000b0 5d 44 46 35 80 65 74 37 3f 6a 2b 35 b0 77 70 37
       7.386023e-07 1.4567166e-05 6.385707e-07 1.4332982e-05
0000c0 d7 f4 29 35 bd d8 4c 38 ed 1a 07 37 3c ad ac 37
       6.3313695e-07 4.8839243e-05 8.052896e-06 2.0584666e-05
0000d0 32 ed c4 36 cb 40 81 38 8b 70 21 38 37 24 82 37
       5.8688684e-06 6.163268e-05 3.8490205e-05 1.5514071e-05
0000e0 3c ad ac 37 be bb 86 36 e8 d5 4e 39 73 24 48 38
       2.0584666e-05 4.0153673e-06 0.00019725377 4.771766e-05
0000f0 b8 2d 2c 35 33 48 42 37 c1 4d 86 37 ef 74 0d 39
       6.414152e-07 1.1580111e-05 1.6010252e-05 0.00013490369
