prediction_engine/testing_validation/weights/walkforward/fold_1/centers.npy (npy, 1664 bytes, 1 tensors)

array f4 [64, 6]
000000 b9 3b e4 3e bb af e8 be ac ce 92 3f ba 19 8d 3f
       0.44576815 -0.45446572 1.1469321 1.1023476
000010 50 cd cf 3d 61 ac ac bd 7d b1 1e bf 27 c7 4c bf
       0.10146582 -0.08431316 -0.61989576 -0.7999138
000020 26 4e bb be 6b 96 51 bf f1 b2 13 3d 3f 5a 2b be
       -0.3658306 -0.81870145 0.036059324 -0.16733645
000030 a0 d9 a9 bf d7 84 4d bf 50 db a5 3f ef 24 38 3e
       -1.3269539 -0.8028082 1.2957554 0.17982839
000040 48 e8 13 be 9d 9e 4c be 86 32 82 3f 95 2f f3 3f
       -0.14444077 -0.19982381 1.0171669 1.8998896
000050 a0 d6 5e be 39 af 2b bf ee 11 3b be 10 2f ac bf
       -0.2176156 -0.67064244 -0.18268558 -1.3451862
000060 71 7e 2f 3f 9d 2b d9 be fc d8 95 bf f6 3c f6 3e
       0.6855231 -0.42416087 -1.1706843 0.48093385
000070 2c 41 39 be ef 43 11 bd 0d 9f 4e 40 a6 ce f6 bd
       -0.18091267 -0.035465177 3.2284577 -0.12051134
000080 75 4a b3 3f 29 7e e5 3f 1b ef 8f 3e e4 4f 1d bc
       1.4007097 1.7929126 0.2811211 -0.009601567
000090 f7 7b 0a c0 ab cc 3a 40 7b fa a8 3f 5c 69 ef 3e
       -2.1638162 2.918742 1.320144 0.4676007
0000a0 21 c9 23 bf 0c d4 81 3e b7 fb 13 40 87 23 45 bf
       -0.63978773 0.2535709 2.3122385 -0.77007335
0000b0 ce 06 3a 3f de 42 55 3e 64 e0 f1 3d cb c3 1b be
       0.72666633 0.20826289 0.11810377 -0.15211408
0000c0 ee bd 14 40 85 e0 45 bf 61 b2 2b 3e 1b 9b 0e bf
       2.3240924 -0.77295715 0.16767265 -0.5570542
0000d0 eb 0d 1f 40 33 85 0b bd 01 24 a6 bf fe c2 4b be
       2.4852245 -0.034062576 -1.2979738 -0.19898602
0000e0 be fd a8 bf 1b de fd 3f f3 29 76 3e 27 a7 55 bd
       -1.3202436 1.9833406 0.2403944 -0.052161362
0000f0 4c 6d 38 bf d5 7e b0 3f eb 70 b5 3d 5c 93 ff be
       -0.72041774 1.3788706 0.08859428 -0.49917114
000100 ca 4c 9a 3d 9f ee 43 bf 34 37 59 be da 34 04 bf
       0.075341776 -0.7653598 -0.21212465 -0.51643145
000110 0f 5f da 3e dd c1 63 be 95 ea d4 bd 25 7e 47 bb
       0.4265065 -0.22241922 -0.103963055 -0.0030440178
000120 e1 b6 9a 3e a4 08 57 3f 94 e1 23 bf 94 a3 84 3e
       0.3021765 0.8399756 -0.6401608 0.2590605
000130 f1 44 57 bb bc 8a 18 3f 21 a0 cd 40 db 66 19 40
       -0.0032847489 0.5958669 6.425797 2.3969028
000140 cc 9d dd 3e 0e 29 96 3f 65 1e 75 be df 13 eb 3f
       0.43284452 1.1731279 -0.23937376 1.8365439
000150 23 9e 11 bf 1b 6f 7e 40 81 b3 18 3f 83 9c 34 be
       -0.5688192 3.9755313 0.596489 -0.1763783
000160 23 f4 25 bf ee 8a ee 3f 8d c3 6d bf cc 27 81 bf
       -0.6482565 1.8636148 -0.9287651 -1.009027
000170 25 2b 46 40 9a 6f 65 3f a9 96 b8 bd 65 e8 a0 be
       3.0963833 0.89623415 -0.09013111 -0.31427303
000180 d7 88 34 c0 b2 1a a0 3f 20 24 97 bd 95 c9 bd 3e
       -2.820852 1.2508147 -0.07379937 0.37067857
000190 73 57 b2 3e 24 33 39 3f a8 ed a1 3f 10 d6 27 bf
       0.34832343 0.7234366 1.2650652 -0.6556101
0001a0 f4 36 ab 3d 66 f1 30 be 94 1a 41 3e c3 83 27 be
       0.08360091 -0.17279586 0.18857795 -0.16358857
0001b0 8f af be be 78 be ce 3e 5a 14 46 bf e3 6f 3e 40
       -0.37243316 0.4037969 -0.77374804 2.975579
0001c0 55 0d 6d 40 a1 c4 1a 3d 75 dd e3 bf 9c 55 a0 40
       3.7039387 0.037785176 -1.7801958 5.0104504
0001d0 a0 bd 47 3f 75 75 12 3f 67 6b 5f 3f ea 66 01 c0
       0.7802372 0.57210475 0.8727326 -2.0219064
0001e0 6f 8f d6 40 10 48 4d 3e 81 08 e7 be df d6 74 3f
       6.705009 0.20047021 -0.45123675 0.9564037
0001f0 9d d8 0a c0 10 9c 01 be 94 11 b6 3f f7 24 86 be
       -2.169471 -0.1265719 1.4224114 -0.26200077
000200 1a 00 b8 bf de 1d e4 3f c3 57 b9 be 53 71 75 bd
       -1.4375031 1.7821615 -0.3619977 -0.059922528
000210 7e 22 74 3c dc 57 a8 40 bb 2c 08 3e 4c a6 24 bf
       0.014900802 5.260725 0.13298313 -0.6431625
000220 2b 95 1d be 45 ad a8 be 9f d3 83 c0 90 6f b0 be
       -0.15388934 -0.32944694 -4.1195827 -0.34460115
000230 f1 08 70 bf 8e d6 3d 3f d2 3d ed bc 40 9f 97 be
       -0.93763644 0.7415551 -0.028960142 -0.29613686
000240 24 a8 66 bf ad 7e 47 3e f0 cd f1 bd 0f 63 1f bf
       -0.9010031 0.19481917 -0.118068576 -0.62260526
000250 d1 f9 9f 3c ea 25 f6 3e 1c 82 11 40 d7 94 55 40
       0.019528301 0.480758 2.2735662 3.3372095
000260 7f d3 b2 3e b1 40 35 be 76 d2 c0 3f b0 ad c5 3f
       0.34926984 -0.17700459 1.5064228 1.544363
000270 2e 59 a3 bf 3c 15 35 bf ae 77 47 bf 34 af 3b be
       -1.276159 -0.70735526 -0.7791699 -0.18328553
000280 21 24 42 bd 76 64 e7 bd c2 65 0f bf 7a 75 83 be
       -0.047397736 -0.11298458 -0.56014645 -0.25675565
000290 51 52 e8 bf e4 fe 35 3f 5c f2 27 be 51 90 e3 3c
       -1.8150121 0.7109206 -0.16401047 0.027778776
0002a0 af 8a 11 41 7c 85 c8 be 94 db 6e 3f 81 dd 0c 40
       9.096358 -0.3916434 0.933038 2.2010195
0002b0 59 83 e4 3f ec ae db bd 94 7f c0 3e 32 63 40 bf
       1.7852584 -0.10726723 0.37597334 -0.7515136
0002c0 da 16 08 be 3c c5 94 bf 59 b8 d3 bd 15 02 12 be
       -0.13289967 -1.1622691 -0.10337896 -0.14258607
0002d0 e3 54 27 c0 03 15 83 be 72 fa a8 3f 9d 8d 38 3f
       -2.614556 -0.25601968 1.320143 0.72091085
0002e0 26 11 b7 bf c0 ff d0 bd 3b ca b3 bf 71 53 96 3f
       -1.4302108 -0.102050304 -1.4046091 1.1744214
0002f0 95 6b f6 3d 95 fd f4 3d b3 e7 16 3e 78 89 67 3f
       0.120322384 0.119624294 0.14736824 0.90444136
000300 7b 98 1f 3e 24 d2 40 3e 29 88 11 3f 67 86 a9 bf
       0.1558551 0.18830162 0.5684839 -1.3244141
000310 6f 9a 0f be 52 d1 52 3e 51 34 49 40 90 eb 0e 40
       -0.14023755 0.20587662 3.1438181 2.2331276
000320 43 dc c1 3e 83 67 a2 3c c6 b6 65 3e 39 eb 93 bf
       0.3786336 0.019824749 0.22433004 -1.1556159
000330 f6 6b 21 bf fc ee 2f bf e3 ea 2f 3f e2 59 a8 bf
       -0.6305536 -0.68724036 0.68717784 -1.315243
000340 1e 93 21 be e3 bf 67 3d 3c ed 08 40 21 a0 24 3f
       -0.15778777 0.05657948 2.1394796 0.6430684
000350 9b af cb bb 9d 11 90 bd d5 b3 0e be 57 40 bf 3e
       -0.006216002 -0.070346095 -0.13935788 0.37353775
000360 c0 ad e4 3e 5e 6e 44 bf 32 3d 57 3d 6f 71 8f be
       0.4466381 -0.76730907 0.052548595 -0.2801623
000370 61 7b 2c 40 a2 00 40 bd 91 35 94 c0 34 ba 1c 40
       2.6950305 -0.046875603 -4.631539 2.448865
000380 99 d6 02 bf 86 2c 2b 40 8d 6e 1b 3f 72 c3 21 bf
       -0.511087 2.6745925 0.6071556 -0.6318885
000390 39 9f ac 40 77 fe 28 bf dd 53 b8 bf 17 37 cd 3f
       5.3944364 -0.6601328 -1.4400593 1.6032437
0003a0 09 d8 b4 bf 5c 70 a7 be ca a1 63 3e 3b 3c ee 40
       -1.4128429 -0.3270291 0.22229686 7.4448524
0003b0 d0 a6 a4 3d fd 3a 99 bf 6a 45 5e 3d 1c 5d c1 c0
       0.080396295 -1.1971127 0.054265417 -6.042616
0003c0 4b ed a0 40 2c 13 41 bf bd 4c 4d 3f 89 61 df 3f
       5.0289664 -0.7541988 0.8019522 1.745164
0003d0 5d 19 fe be 4d c5 1d be 10 1b 81 bf db 10 19 40
       -0.49628726 -0.15407296 -1.0086384 2.3916538
0003e0 7d d0 71 bf e8 ba b6 3e 0b 8e 72 3e 06 66 a4 bf
       -0.9445875 0.35689473 0.23686998 -1.2843635
0003f0 76 d6 b3 3e 6e 44 26 bf 95 c3 c5 3e e4 8f aa 3e
       0.35124558 -0.64948165 0.3862578 0.33312905
