prediction_engine/testing_validation/weights/walkforward/fold_2/centers.npy (npy, 1664 bytes, 1 tensors)

array f4 [64, 6]
0.44576818 -0.4544657 1.1469321 1.1023477 0.101465814 -0.08431316 -0.61989576 -0.7999138
-0.3658306 -0.8187015 0.036059324 -0.16733643 -1.3269539 -0.8028082 1.2957555 0.17982838
-0.14444077 -0.19982381 1.0171667 1.8998898 -0.21761562 -0.6706424 -0.18268558 -1.3451862
0.6855231 -0.4241609 -1.1706843 0.48093385 -0.18091267 -0.03546517 3.2284575 -0.12051132
1.4007097 1.7929126 0.2811211 -0.009601567 -2.1638162 2.918742 1.320144 0.46760073
-0.63978773 0.2535709 2.3122382 -0.77007335 0.72666633 0.20826289 0.11810377 -0.15211408
2.3240924 -0.77295715 0.16767265 -0.5570542 2.4852245 -0.034062576 -1.2979738 -0.19898602
-1.3202436 1.9833406 0.2403944 -0.052161355 -0.72041774 1.3788705 0.08859428 -0.49917114
0.07534177 -0.76535994 -0.21212465 -0.51643145 0.42650652 -0.22241922 -0.10396304 -0.003044017
0.3021765 0.8399757 -0.64016074 0.2590605 -0.003284742 0.5958669 6.425797 2.3969028
0.43284452 1.1731279 -0.23937376 1.8365439 -0.5688192 3.9755313 0.596489 -0.17637831
-0.6482565 1.8636148 -0.9287651 -1.009027 3.0963833 0.89623415 -0.09013111 -0.31427303
-2.8208518 1.2508147 -0.07379937 0.37067857 0.34832346 0.7234366 1.2650651 -0.6556101
0.0836009 -0.17279583 0.18857792 -0.16358858 -0.37243316 0.4037969 -0.77374804 2.975579
3.7039387 0.037785176 -1.7801958 5.0104504 0.7802372 0.57210475 0.8727326 -2.0219064
6.705009 0.20047021 -0.45123675 0.9564037 -2.169471 -0.1265719 1.4224116 -0.26200077
-1.4375031 1.7821615 -0.36199766 -0.05992253 0.014900802 5.260725 0.13298313 -0.6431624
-0.15388934 -0.32944694 -4.1195827 -0.34460115 -0.9376365 0.7415551 -0.028960137 -0.29613686
-0.9010031 0.19481915 -0.118068576 -0.62260526 0.019528298 0.480758 2.2735665 3.3372095
0.34926984 -0.1770046 1.5064228 1.5443631 -1.2761592 -0.7073553 -0.7791698 -0.18328552
-0.047397733 -0.11298459 -0.56014645 -0.25675565 -1.8150121 0.7109206 -0.16401047 0.027778774
9.096358 -0.3916434 0.933038 2.2010195 1.7852584 -0.10726723 0.37597337 -0.7515136
-0.13289967 -1.1622691 -0.10337895 -0.14258607 -2.614556 -0.25601968 1.3201429 0.72091085
-1.4302108 -0.102050304 -1.4046092 1.1744214 0.120322384 0.119624294 0.14736825 0.90444136
0.1558551 0.1883016 0.5684839 -1.324414 -0.14023755 0.2058766 3.1438181 2.2331276
0.37863362 0.019824743 0.22433004 -1.1556158 -0.63055366 -0.6872404 0.6871778 -1.315243
-0.15778777 0.05657948 2.1394796 0.6430684 -0.0062159933 -0.070346095 -0.13935786 0.37353778
0.4466381 -0.76730907 0.052548595 -0.2801623 2.6950305 -0.046875603 -4.631539 2.448865
-0.511087 2.6745925 0.6071556 -0.6318885 5.3944364 -0.6601328 -1.4400593 1.6032437
-1.4128429 -0.3270291 0.22229686 7.4448524 0.080396295 -1.1971127 0.054265417 -6.042616
5.0289664 -0.7541988 0.8019522 1.745164 -0.49628726 -0.15407296 -1.0086384 2.391654
-0.9445876 0.35689476 0.23686995 -1.2843635 0.3512456 -0.64948165 0.38625783 0.33312902
00000000: ba3b e43e baaf e8be acce 923f bb19 8d3f
00000010: 4fcd cf3d 61ac acbd 7db1 1ebf 27c7 4cbf
00000020: 264e bbbe 6c96 51bf f1b2 133d 3e5a 2bbe
00000030: a0d9 a9bf d784 4dbf 51db a53f ee24 383e
00000040: 48e8 13be 9d9e 4cbe 8532 823f 972f f33f
00000050: a1d6 5ebe 38af 2bbf ee11 3bbe 102f acbf
00000060: 717e 2f3f 9e2b d9be fcd8 95bf f63c f63e
00000070: 2c41 39be ed43 11bd 0c9f 4e40 a4ce f6bd
00000080: 754a b33f 297e e53f 1bef 8f3e e44f 1dbc
00000090: f77b 0ac0 abcc 3a40 7bfa a83f 5d69 ef3e
000000a0: 21c9 23bf 0cd4 813e b6fb 1340 8723 45bf
000000b0: ce06 3a3f de42 553e 64e0 f13d cbc3 1bbe
000000c0: eebd 1440 85e0 45bf 61b2 2b3e 1b9b 0ebf
000000d0: eb0d 1f40 3385 0bbd 0124 a6bf fec2 4bbe
000000e0: befd a8bf 1bde fd3f f329 763e 25a7 55bd
000000f0: 4c6d 38bf d47e b03f eb70 b53d 5c93 ffbe
00000100: c94c 9a3d a1ee 43bf 3437 59be da34 04bf
00000110: 105f da3e ddc1 63be 93ea d4bd 217e 47bb
00000120: e1b6 9a3e a608 573f 93e1 23bf 94a3 843e
00000130: d344 57bb bc8a 183f 21a0 cd40 db66 1940
00000140: cc9d dd3e 0e29 963f 651e 75be df13 eb3f
00000150: 239e 11bf 1b6f 7e40 81b3 183f 849c 34be
00000160: 23f4 25bf ee8a ee3f 8dc3 6dbf cc27 81bf
00000170: 252b 4640 9a6f 653f a996 b8bd 65e8 a0be
00000180: d688 34c0 b21a a03f 2024 97bd 95c9 bd3e
00000190: 7457 b23e 2433 393f a7ed a13f 10d6 27bf
000001a0: f336 ab3d 64f1 30be 921a 413e c483 27be
000001b0: 8faf bebe 78be ce3e 5a14 46bf e36f 3e40
000001c0: 550d 6d40 a1c4 1a3d 75dd e3bf 9c55 a040
000001d0: a0bd 473f 7575 123f 676b 5f3f ea66 01c0
000001e0: 6f8f d640 1048 4d3e 8108 e7be dfd6 743f
000001f0: 9dd8 0ac0 109c 01be 9511 b63f f724 86be
00000200: 1a00 b8bf de1d e43f c257 b9be 5471 75bd
00000210: 7e22 743c dc57 a840 bb2c 083e 4ba6 24bf
00000220: 2b95 1dbe 45ad a8be 9fd3 83c0 906f b0be
00000230: f208 70bf 8ed6 3d3f cf3d edbc 409f 97be
00000240: 24a8 66bf ac7e 473e f0cd f1bd 0f63 1fbf
00000250: cff9 9f3c ea25 f63e 1d82 1140 d794 5540
00000260: 7fd3 b23e b240 35be 76d2 c03f b1ad c53f
00000270: 2f59 a3bf 3d15 35bf ac77 47bf 33af 3bbe
00000280: 2024 42bd 7764 e7bd c265 0fbf 7a75 83be
00000290: 5152 e8bf e4fe 353f 5cf2 27be 5090 e33c
000002a0: af8a 1141 7c85 c8be 94db 6e3f 81dd 0c40
000002b0: 5983 e43f ecae dbbd 957f c03e 3263 40bf
000002c0: da16 08be 3cc5 94bf 58b8 d3bd 1502 12be
000002d0: e354 27c0 0315 83be 71fa a83f 9d8d 383f
000002e0: 2611 b7bf c0ff d0bd 3cca b3bf 7153 963f
000002f0: 956b f63d 95fd f43d b4e7 163e 7889 673f
00000300: 7b98 1f3e 22d2 403e 2988 113f 6686 a9bf
00000310: 6f9a 0fbe 51d1 523e 5134 4940 90eb 0e40
00000320: 44dc c13e 8067 a23c c6b6 653e 38eb 93bf
00000330: f76b 21bf fdee 2fbf e2ea 2f3f e259 a8bf
00000340: 1e93 21be e3bf 673d 3ced 0840 21a0 243f
00000350: 88af cbbb 9d11 90bd d4b3 0ebe 5840 bf3e
00000360: c0ad e43e 5e6e 44bf 323d 573d 6f71 8fbe
00000370: 617b 2c40 a200 40bd 9135 94c0 34ba 1c40
00000380: 99d6 02bf 862c 2b40 8d6e 1b3f 72c3 21bf
00000390: 399f ac40 77fe 28bf dd53 b8bf 1737 cd3f
000003a0: 09d8 b4bf 5c70 a7be caa1 633e 3b3c ee40
000003b0: d0a6 a43d fd3a 99bf 6a45 5e3d 1c5d c1c0
000003c0: 4bed a040 2c13 41bf bd4c 4d3f 8961 df3f
000003d0: 5d19 febe 4dc5 1dbe 101b 81bf dc10 1940
000003e0: 7ed0 71bf e9ba b63e 098e 723e 0666 a4bf
000003f0: 77d6 b33e 6e44 26bf 96c3 c53e e38f aa3e
