weights/centers.npy (npy, 848 bytes, 1 tensors)

array f4 [15, 12]
000000 94 c4 a5 ba 3a f7 91 3f 00 49 2c bb 7e 94 a9 bb
       -0.0012647086 1.1403573 -0.0026288629 -0.0051751724
000010 f6 f4 f1 bb 21 19 b7 3c 68 10 91 41 eb 39 d0 be
       -0.007383938 0.02235085 18.13301 -0.40669188
000020 8a 2d ad 3e 3a 5a 33 be 9c 1c cb be eb 28 8f 3d
       0.33823806 -0.17514887 -0.39670265 0.06990226
000030 da 71 a0 3c f6 de 9d 3f c8 e9 b2 3a 42 48 9f 3b
       0.019585539 1.2333667 0.0013649995 0.0048609087
000040 e2 22 35 3c 04 f4 d8 3c 77 22 8c 42 fb ed 40 3f
       0.01105568 0.026483543 70.067314 0.7536313
000050 dd 6d a0 bf be a8 8f 3f dc 05 af 3f ed 9b 59 3e
       -1.2533528 1.1223371 1.3673663 0.21250887
000060 63 a0 62 bc 59 11 88 3f 21 df cf bb 12 ca 4d bc
       -0.0138321845 1.0630294 -0.0063437377 -0.012560384
000070 7a 3c 56 bc 52 fb b8 3c 33 35 2f 42 dc a2 83 bf
       -0.013075942 0.022580776 43.801952 -1.0284076
000080 ed 56 09 bf d8 28 cb 3e 36 f6 e9 3e 0b 70 3b bd
       -0.53648263 0.396796 0.45695657 -0.04576115
000090 5a d6 3a 3c 18 db 23 3f be 75 b0 ba 55 12 0e bb
       0.011403644 0.64006186 -0.0013462824 -0.0021678407
0000a0 b4 1a 80 bb b6 f7 9c 3c c0 ff 56 41 c0 76 cd bd
       -0.0039094333 0.019161087 13.437439 -0.100324154
0000b0 a4 a5 24 3e f2 ab 4d bf 84 9f 0c bf 08 f9 8c 3e
       0.16078812 -0.8034049 -0.549309 0.27533746
0000c0 48 6f df bb a5 28 7e 3f 78 ca 5f bb 6a dc 2e bc
       -0.0068186857 0.9928077 -0.003414778 -0.010672668
0000d0 be aa 0f bc 1a c1 e1 3b 8e be c5 42 c7 34 42 bf
       -0.008768735 0.0068894746 98.87218 -0.7586178
0000e0 49 1b 67 c0 31 ba a9 3f c9 a3 88 3f 80 83 a6 3b
       -3.6110404 1.3259946 1.0674983 0.005081594
0000f0 12 db c7 3b e0 bb 8a 3f e8 7e d4 ba 5e b2 3b bb
       0.0060991133 1.0838585 -0.0016212137 -0.002864025
000100 ef fc a0 bb 1e 33 ba 3c 74 e9 52 42 00 bc 05 be
       -0.0049129645 0.022729453 52.72798 -0.13059998
000110 b2 b2 62 bf 29 4d 11 3f af f8 30 3f aa bd 33 3e
       -0.8855392 0.5675836 0.6912946 0.1755282
000120 60 2c 81 3c 37 b6 b8 3f 64 1e 66 3b 0a b5 a6 3b
       0.01576823 1.4430608 0.003511333 0.0050874995
000130 dc af 10 3c bc 20 a8 3c b3 b4 b5 41 86 3d 31 3f
       0.008830991 0.020523421 22.713232 0.692345
000140 9c dd 4c 3d 35 45 d6 3d 95 db 11 bf 40 2d e2 3d
       0.05001603 0.10462419 -0.5697568 0.11043787
000150 79 33 72 bc ec 56 2f 3f 8a 95 85 bb dd 62 1c bc
       -0.01478278 0.6849201 -0.0040766643 -0.009545055
000160 11 30 0c bc 20 1b af 3c 67 9f 0f 42 40 95 48 bf
       -0.008556382 0.021375239 35.905666 -0.7835274
000170 cc 0a de be a8 9a 16 be b6 30 8f 3e b8 62 58 be
       -0.43367612 -0.14707434 0.2796685 -0.21131408
000180 98 da 87 bc de d4 b5 3f f9 81 1a bb dc ac e3 bb
       -0.016583726 1.4205587 -0.0023576005 -0.0069480967
000190 e3 a2 09 bc 49 d7 99 3c bb bd a2 42 4a 93 18 bf
       -0.008400652 0.018779414 81.37057 -0.59599745
0001a0 da 0a 05 c0 a6 82 c0 3f 51 45 93 3f 57 3b 92 be
       -2.0787873 1.5039871 1.1505529 -0.28560898
0001b0 98 02 3f bb 06 69 4b 40 29 2c 12 ba 26 63 78 ba
       -0.0029145833 3.1782851 -0.00055760384 -0.00094752235
0001c0 c2 16 14 bb 3e 04 9b 3c fa cc 20 41 28 53 76 bd
       -0.0022596573 0.018922921 10.050043 -0.060137898
0001d0 34 9a 4a 3f 92 36 ad 3f 52 f4 e2 bf 10 3d 69 3b
       0.79141545 1.3532279 -1.7730811 0.0035589375
0001e0 88 73 38 bd be c6 8a 3f 03 99 0e bc df 4a 9b bc
       -0.045032054 1.0841901 -0.008703473 -0.0189566
0001f0 e5 d7 c5 bc 13 f7 ab 3c 9b ea 73 42 ab fc f0 bf
       -0.024150798 0.020991838 60.979107 -1.8827108
000200 c5 d7 99 bf 92 b0 5a 3f cf 82 62 3f 43 d7 18 bf
       -1.2018973 0.85425675 0.8848085 -0.59703463
000210 1c 18 e5 3a 5d 79 09 3f cc 27 65 b9 0e 0e f3 b9
       0.0017478499 0.5370081 -0.00021853967 -0.00046359043
000220 7e f7 9d 39 87 0a b0 3c 1e c2 0d 41 3a 7c b5 bb
       0.0003012977 0.021489395 8.859892 -0.0055384906
000230 56 39 eb 3e 49 72 73 bf 0e ca ff be 85 e2 65 bd
       0.4594218 -0.9509626 -0.49958843 -0.05612423
000240 f1 43 3e 3d 55 b5 a5 3f ab 4a 98 3c 8f 0b 08 3d
       0.046451513 1.2945963 0.018590292 0.033214148
000250 41 00 58 3d 59 30 01 3d 32 17 01 42 d1 35 62 40
       0.052734617 0.03154025 32.27265 3.5345347
000260 17 bc 96 3e 68 21 7f 3e 6c bf c3 3e 16 dc 47 be
       0.29440376 0.24915087 0.3823198 -0.1951755
000270 f3 a7 0e 3d 9c a3 02 40 db 81 08 3c 87 60 92 3c
       0.034828138 2.041236 0.008331741 0.017868293
000280 df 39 a2 3c 30 83 e3 3c c5 fa 1f 42 c9 17 e9 3f
       0.019802986 0.027772516 39.994892 1.8210384
000290 c0 e4 3d 3c a1 da 8b 3f 62 f9 13 3e 17 40 8d 3e
       0.011590183 1.0926095 0.144506 0.2758796
0002a0 62 1f 13 3c e1 40 82 3f fd c9 83 bb fa ce d4 bb
       0.00897965 1.017605 -0.0040218816 -0.0064944
0002b0 2f d1 2c bc 89 a3 b2 3c 7b 49 e0 41 45 9b ed be
       -0.01054792 0.021806495 28.03588 -0.46407524
0002c0 5b a1 94 bd 89 27 93 bd e3 a4 88 bd be 1f ca 3e
       -0.072573386 -0.07185275 -0.06672075 0.39477342
