weights/cluster_stats.npz (npz, 755 bytes, 3 tensors)

mu f4 [15]
00000000: 8dc4 a5ba db71 a03c 64a0 62bc 5cd6 3a3c
00000010: 476f dfbb 13db c73b 612c 813c 7a33 72bc
00000020: 98da 87bc 9302 3fbb 8673 38bd 1e18 e53a
00000030: f143 3e3d f1a7 0e3d 621f 133c
-0.0012647078 0.01958554 -0.013832185 0.011403646 -0.006818685 0.0060991137 0.015768232 -0.014782781
-0.016583726 -0.0029145821 -0.045032047 0.0017478501 0.046451513 0.03482813 0.00897965

var f4 [15]
00000000: df5e 6f3a 8232 1f3c f5d6 ee3a 0462 033b
00000010: 3435 d937 fc4f 583b ecf3 143b 3838 b73a
00000020: 7f7d 903a b690 253a 1299 403b 5e32 523a
00000030: 69e3 f63a 3ad8 173b d86e 363b
0.00091312634 0.009716632 0.0018222021 0.0020047436 2.589319e-05 0.0033006659 0.0022728397 0.0013978546
0.0011023729 0.0006315814 0.0029388112 0.00080183696 0.0018836084 0.0023169653 0.0027837064

var_down f4 [15]
00000000: f2a1 b239 ad44 7a3a 099e 493a 6a59 b639
00000010: 3435 d937 3326 353a d91d 9a39 021d 273a
00000020: 9419 ed39 7651 d739 96e9 6f3a 6426 b839
00000030: e6cf 4e38 9f16 0c3a bc28 9939
0.00034071464 0.00095469767 0.00076910906 0.00034780364 2.589319e-05 0.0006910294 0.00029395407 0.0006374867
0.0004522322 0.0004106869 0.00091519335 0.00035123818 4.9307848e-05 0.0005343947 0.00029212784
